flask/LeNet.pth (torch, 252700 bytes, 10 tensors)

weight f4 [6, 3, 5, 5]
0	0xbbc6e4d0	-0.006069757
1	0xbdaf8b78	-0.085715234
2	0x3d761e4e	0.060087495
3	0x3d4fa599	0.050695036
4	0xbae247e2	-0.0017263854
5	0xbe5042d6	-0.20337996
6	0xbe65f165	-0.22455366
7	0xbdcd8f3b	-0.10037085
8	0xbe469c06	-0.19395456
9	0xbe113279	-0.1417941
10	0xbe44b44d	-0.19209404
11	0xbdb1a984	-0.08674911
12	0xbc8e1bae	-0.017347183
13	0xbdec5691	-0.11539949
14	0xbe7b207f	-0.24524115
15	0x3d5ee3ce	0.05441647
16	0x3e70c5d2	0.23512962
17	0x3e7d450b	0.24733369
18	0x3e91c97d	0.28474036
19	0x3da8e377	0.082465105
20	0x3e26a3e8	0.16273463
21	0x3e2bf088	0.16790974
22	0x3e2f079f	0.17092751
23	0x3d856175	0.06512729
24	0x3de56dbd	0.112025715
25	0x3dd19af4	0.10234633
26	0x3d6c19d8	0.057641834
27	0xbd1b0848	-0.037849694
28	0xbc826390	-0.015916616
29	0x3dea4ca5	0.114404
30	0xbda3f7d0	-0.08006251
31	0xbe8f3506	-0.2797014
32	0xbe69d88c	-0.22836512
33	0xbe663804	-0.22482306
34	0xbd0b7e31	-0.034055892
35	0xbe55d05f	-0.20880269
36	0xbe211037	-0.15728842
37	0xbdef4fdb	-0.11685153
38	0xbe480a49	-0.19535173
39	0xbe15019b	-0.14551394
40	0x3dec50c0	0.11538839
41	0x3e953132	0.29139096
42	0x3ec24724	0.379449
43	0x3e47e3c3	0.19520478
44	0x3e0990ef	0.13434194
45	0xbd3fab95	-0.046794493
46	0x3e0676c4	0.13131243
47	0x3e7d3c0a	0.24729934
48	0x3e26b22a	0.16278902
49	0x3dbf58d1	0.09343112
50	0x3da7a4be	0.08185719
51	0x3dd656b8	0.10465759
52	0x3ce6ee42	0.028189782
53	0x3d735e2f	0.059415992
54	0x3de8e6f9	0.113721795
55	0xbe3c957c	-0.18416399
56	0xbe4ce5fb	-0.20009606
57	0xbdba719b	-0.091037
58	0xbde91626	-0.113811776
59	0xbda2f101	-0.07956124
60	0xbe8048bf	-0.250555
61	0xbcfa3016	-0.030540507
62	0xbe3ec6b7	-0.18630491
63	0xbe5f1f03	-0.21789174
64	0xbe8168e9	-0.25275353
65	0xbd79bac6	-0.060969137
66	0x3e5fe700	0.21865463
67	0x3eb7c6ca	0.35893852
68	0x3e6ec34d	0.23316689
69	0xbd831f1a	-0.064024165
70	0x3df30c8a	0.11867626
71	0x3d3b3783	0.045707237
72	0x3d3f6a66	0.04673233
73	0x3cd3619f	0.025803385
74	0xbda9cbf7	-0.08290856
75	0x3d274801	0.040840153
76	0xbe0d7d60	-0.13817358
77	0xbe175e2f	-0.14782022
78	0xbdf47002	-0.11935426
79	0x3d8a4b9e	0.06752704
80	0x3d636239	0.055513594
81	0x3d444e7c	0.04792641
82	0xbe0ffbc5	-0.14060886
83	0x3d9976bd	0.07493351
84	0x3b0290de	0.0019922773
85	0xbd4dcd6f	-0.050244745
86	0x3dceb42e	0.1009296
87	0xbde31be2	-0.110893026
88	0x3d04960c	0.03236966
89	0x3dc64f79	0.09683127
90	0x3dd5228a	0.104069784
91	0x3df3efa1	0.1191094
92	0x3b4472be	0.0029975618
93	0x3d26c6eb	0.040717047
94	0xbd7b83eb	-0.061405104
95	0x3daeb296	0.08530156
96	0x3dca2b45	0.09871534
97	0xbca59af7	-0.020215495
98	0x3de1b907	0.11021619
99	0xbd497e97	-0.04919299
100	0x3d0ce36c	0.034396574
101	0xbd855538	-0.06510395
102	0x3cbc069e	0.022952374
103	0xbda7c4f0	-0.0819186
104	0x3e006e9c	0.12542194
105	0xbc12194d	-0.008917165
106	0xbc448708	-0.011995085
107	0xbda25240	-0.07925844
108	0x3db73645	0.08945898
109	0xbdc6dd0f	-0.09710132
110	0xbde9c6e1	-0.11414886
111	0x3d880b96	0.06642835
112	0xbbd4acb6	-0.0064903153
113	0x3cf2d832	0.029644106
114	0x3de18eaf	0.11013543
115	0xbdac6276	-0.084172174
116	0x3cb40999	0.021977233
117	0xbd0859e3	-0.033288848
118	0xbd267529	-0.040639076
119	0xbd284ac3	-0.041086923
120	0xbd4daf96	-0.05021628
121	0x3e033ae8	0.1281544
122	0x3dd571fc	0.104221314
123	0x3e068d84	0.13139921
124	0x3dc7822a	0.09741624
125	0xbdb2ee0f	-0.08736812
126	0xbe06246c	-0.13099831
127	0xbcc65886	-0.024212133
128	0xbc8d2ffb	-0.017234793
129	0x3dd8e563	0.10590627
130	0x3d00d209	0.031450305
131	0xbdab01f3	-0.08349981
132	0xbda36d34	-0.07979813
133	0x3d1cef1a	0.038313963
134	0x3ddc4ec1	0.107572086
135	0x3da4e0cb	0.08050688
136	0x3da5fe80	0.08105183
137	0x3d0ad856	0.03389772
138	0x3c18124e	0.009281708
139	0xbcb5ccde	-0.022192415
140	0x3dbf7e62	0.093502775
141	0xbd9934dd	-0.07480786
142	0xbba27b2f	-0.0049585323
143	0x3db31d10	0.087457776
144	0xbdce1592	-0.10062708
145	0x3e018f5a	0.1265234
146	0x3dc72f05	0.09725765
147	0x3d693772	0.056937642
148	0x3d89bb23	0.067251466
149	0x3da3123c	0.07962462
150	0xbe3bfd23	-0.18358283
151	0x3c910085	0.017700443
152	0x3dab5484	0.083657295
153	0x3dad09ed	0.08449159
154	0x3e505486	0.20344743
155	0xbde28a3a	-0.11061521
156	0x3e6c3227	0.23066007
157	0x3e89a64e	0.26884693
158	0x3daf0a20	0.08546853
159	0x3cce735f	0.025201498
160	0x3e3b8413	0.18312101
161	0x3e88711d	0.266488
162	0x3dc37225	0.09543256
163	0xbe495a7c	-0.19663423
164	0xbddb4dd8	-0.10708207
165	0x3dbb3c45	0.09142355
166	0x3cd45d77	0.025923474
167	0xbe947b50	-0.2900033
168	0xbe9814d9	-0.29703405
169	0xbe4518ae	-0.19247696
170	0xbdbc7efa	-0.09203906
171	0xbd98abd0	-0.07454646
172	0xbe905fa5	-0.2819797
173	0xbe0b9d1a	-0.13634148
174	0x3c632769	0.013864377
175	0xbe843227	-0.25819513
176	0xbcb514ab	-0.022104582
177	0x3e05a8d9	0.13052692
178	0x3e31cda4	0.17363602
179	0x3defbad9	0.1170556
180	0x3d4a819e	0.04944002
181	0x3e7c7895	0.24655373
182	0x3e983bfa	0.29733258
183	0x3e20047b	0.15626709
184	0x3cd4e918	0.025990054
185	0x3e0329aa	0.12808862
186	0x3e9430a1	0.2894335
187	0x3d824509	0.06360824
188	0xbe220f4c	-0.15826148
189	0xbe28120d	-0.16413136
190	0x3d8afad6	0.067861244
191	0x3ce557b9	0.027995931
192	0xbe5a05f7	-0.21291338
193	0xbea1aaef	-0.31575724
194	0xbe14f412	-0.1454623
195	0xbbf26be5	-0.007398116
196	0xbe1d497d	-0.15360065
197	0xbe80486a	-0.25055248
198	0xbdd2aa6d	-0.102864124
199	0x3ca5d5ae	0.020243492
200	0xbdcd09bb	-0.100116216
201	0xbddc8d2e	-0.107691154
202	0x3e0640a7	0.131106
203	0x3de03ead	0.109494545
204	0x3e11d852	0.14242676
205	0x3dd8afbe	0.10580395
206	0x3dc3ed50	0.09566748
207	0x3ea26632	0.31718594
208	0x3d140d7e	0.03614568
209	0x3e1e8c6e	0.15483257
210	0x3dc046a0	0.09388471
211	0x3e65086a	0.22366491
212	0x3e19ce8a	0.15020195
213	0xbdbda04b	-0.09259089
214	0xbd3a9e31	-0.04556102
215	0x3e334d12	0.17509869
216	0x3c61a793	0.013772863
217	0xbeaf9c56	-0.34298962
218	0xbec7b331	-0.390039
219	0xbd6fba24	-0.058527127
220	0xbe154487	-0.14576922
221	0xbe42c6b9	-0.19021119
222	0xbe4abf5a	-0.19799557
223	0xbbd67de8	-0.006545771
224	0x3d8ef66c	0.06980595
225	0x3e3fc371	0.18726899
226	0x3e226840	0.1586008
227	0xbc580e5b	-0.013187016
228	0xbe8a2ff4	-0.2698971
229	0xbe66aa79	-0.22525968
230	0x3da9a8c4	0.082841426
231	0xbc472656	-0.012155136
232	0xbc8e153a	-0.017344106
233	0xbe2a8c8e	-0.1665518
234	0x3cbe3d1b	0.023222497
235	0x3d910116	0.07080285
236	0xbe42299e	-0.18961188
237	0xbd4d8201	-0.05017281
238	0x3e82a1c6	0.25514048
239	0x3e3d5965	0.18491133
240	0x3c7c6307	0.015404469
241	0xbe95b502	-0.2923966
242	0xbe34a944	-0.17642695
243	0x3ebaa676	0.36455125
244	0x3e04d210	0.12970757
245	0x3da5d15d	0.080965735
246	0xbe86784d	-0.26263657
247	0xbe218fc7	-0.15777503
248	0x3df77ed5	0.12084738
249	0x3e4c37c3	0.19943146
250	0x3da04c90	0.07827103
251	0x3e2a1b58	0.16611993
252	0x3bc5df53	0.006038585
253	0xbde52ece	-0.11190568
254	0xbe7fb427	-0.24971066
255	0x3e594562	0.21217874

bias f4 [6]
0	0x3b815517	0.003946911
1	0xbe2ddffe	-0.16979977
2	0xbda24041	-0.07922412
3	0xbdef6ad1	-0.116902955
4	0x3d910422	0.070808664
5	0xbe93716a	-0.28797466

weight f4 [16, 6, 5, 5]
0	0x3c90ccf4	0.017675854
1	0x3dcf5e73	0.10125437
2	0x3e85db65	0.26143947
3	0x3e346bac	0.17619199
4	0x3ca93081	0.020653011
5	0xbe863a86	-0.26216525
6	0xbe56c681	-0.2097416
7	0xbe186d79	-0.1488551
8	0xbe083ba0	-0.13303995
9	0xbbff1fd8	-0.0077857785
10	0xbcbd963a	-0.023142923
11	0x3dc3bb4a	0.09557207
12	0x3e2fa179	0.1715144
13	0x3cc981f1	0.024598094
14	0xbdd1821d	-0.10229895
15	0xbe663747	-0.22482024
16	0xbe5e7204	-0.21723181
17	0x3d824aae	0.063619
18	0xbdc1605b	-0.094422065
19	0xbe29ca95	-0.16581185
20	0xbeb35c1a	-0.35031205
21	0xbd99588c	-0.07487592
22	0x3d36d73d	0.04463886
23	0x3cb49657	0.022044344
24	0xbde70e3a	-0.112820104
25	0x3e0ccc9c	0.13749927
26	0x3d4cbe2a	0.049986042
27	0x3dff55fb	0.12467571
28	0x3d82b2b1	0.06381739
29	0xbddd0c02	-0.10793306
30	0x3dece641	0.11567355
31	0xbc1c1c2b	-0.0095282
32	0xbde2b318	-0.11069316
33	0xbe297e2a	-0.16552034
34	0xbe131e7e	-0.143671
35	0x3e2de46d	0.16981669
36	0x3e0be108	0.13660061
37	0xbdf83908	-0.12120253
38	0xbe0d7067	-0.1381241
39	0xbe11a6fd	-0.14223857
40	0x3e55f446	0.20893964
41	0x3dd63654	0.10459581
42	0xbd8e8c33	-0.06960335
43	0xbdee4fb3	-0.11636295
44	0xbd9c48c9	-0.0763107
45	0x3db935b3	0.090434454
46	0x3db7366b	0.08945926
47	0xbd6eed85	-0.058331985
48	0xbd09fd5e	-0.033688895
49	0xbd9987a1	-0.07496572
50	0x3e30e7cf	0.17275928
51	0xbd62c41d	-0.05536281
52	0xbe430e33	-0.19048385
53	0x3c8c1355	0.017099062
54	0x3d96f8ae	0.07371651
55	0x3bbdb901	0.0057898764
56	0x3d580be3	0.05274571
57	0x3e13bc2b	0.14427249
58	0x3d1c1642	0.038107164
59	0xbcc23788	-0.02370812
60	0xbd80b6d0	-0.06284869
61	0x3e2491e4	0.16071278
62	0x3d824492	0.06360735
63	0xbdbb9da2	-0.091609254
64	0xbe9b33a9	-0.3031285
65	0xbd22b5dc	-0.039724216
66	0x3df4358f	0.11924278
67	0xbd5af61d	-0.05345737
68	0xbe41ca0d	-0.18924733
69	0xbebde46e	-0.3708834
70	0xba488a85	-0.00076500355
71	0x3ea19a7b	0.31563172
72	0x3ddea81c	0.10871908
73	0xbe86ef0b	-0.2635425
74	0xbeb18ad9	-0.34676245
75	0xbe0d27c4	-0.137847
76	0xbd7173c6	-0.0589483
77	0xbdbf7919	-0.093492694
78	0xbe3e35af	-0.18575166
79	0xbe3828e5	-0.1798435
80	0xbd4af88d	-0.049553443
81	0xbe1a4760	-0.1506629
82	0xbe1b2b56	-0.1515325
83	0x3ce05aac	0.027386986
84	0xbd663a43	-0.056207906
85	0xbc878933	-0.016544914
86	0x3c27478f	0.010209932
87	0xbd720d0b	-0.05909447
88	0x3e12d4f2	0.14339045
89	0xbe8c51c1	-0.27406123
90	0xbe37d338	-0.17951667
91	0x3e86abca	0.2630294
92	0x3da46c5a	0.08028479
93	0xbe5e0f4a	-0.2168552
94	0xbe5e1eae	-0.21691391
95	0x3e8caafe	0.27474207
96	0x3dde90a8	0.10867435
97	0x3f079ce4	0.5297377
98	0x3dcc94f9	0.09989352
99	0xbdc71806	-0.09721379
100	0xbc8d276b	-0.01723071
101	0xbc7dc563	-0.015488955
102	0x3b891c24	0.004184263
103	0x3e207a9a	0.15671769
104	0x3d8dbbd1	0.06920589
105	0xbc82e9ea	-0.01598068
106	0xbc89827f	-0.016785858
107	0x3817c552	3.6184974e-05
108	0xbd4c6217	-0.049898233
109	0x3dbedaa9	0.0931905
110	0x3d564c7f	0.052319046
111	0x3da039da	0.07823534
112	0x3d432aff	0.047648426
113	0x3cf01a12	0.029309306
114	0x3d961fe0	0.073302984
115	0xbabb6144	-0.0014295955
116	0x3d935415	0.07193772
117	0x3d3112c0	0.043230772
118	0x3dd772b4	0.10519925
119	0x3dcf1bdc	0.10112736
120	0xbd37e6b4	-0.04489775
121	0x3d831fa6	0.06402521
122	0x3e6c2ce0	0.23063993
123	0x3d816633	0.06318321
124	0x3c5eda58	0.013601862
125	0x3db43f91	0.08801187
126	0x3d968f5c	0.073515624
127	0x3dc15142	0.09439327
128	0xbdecc0e4	-0.115602285
129	0xbdd7284e	-0.105057344
130	0x3e0a93d7	0.13532959
131	0x3d21f054	0.039535835
132	0xbce7da79	-0.028302418
133	0xbdc77de3	-0.09740808
134	0xbd03e412	-0.032199927
135	0x3e2a3478	0.16621578
136	0x3b2cfd66	0.0026396154
137	0xbce5e1da	-0.028061796
138	0xbe071c06	-0.13194284
139	0xbaede61e	-0.0018150245
140	0x3dd2da38	0.10295528
141	0x3e260def	0.16216253
142	0xbde2a480	-0.11066532
143	0xbdb8f634	-0.090313345
144	0x3dcb2636	0.099193975
145	0x3e84822b	0.2588056
146	0x3d99d23e	0.07510804
147	0xbd800e82	-0.06252767
148	0xbe04b216	-0.1295856
149	0xbd6b3c9e	-0.057430856
150	0xbd84ed85	-0.06490616
151	0x3ceaec70	0.028677195
152	0xbcc1be43	-0.023650294
153	0xbbbfa177	-0.0058481055
154	0xbddd7a58	-0.10814351
155	0xbd8dc8a0	-0.06923032
156	0xbe08f36a	-0.13374105
157	0xbe4f088e	-0.20218107
158	0xbe3378fb	-0.17526619
159	0xbd7d10f0	-0.06178373
160	0xbe478926	-0.19485912
161	0xbec8d171	-0.3922229
162	0xbe3e0469	-0.1855637
163	0xbc316c9d	-0.010829118
164	0xbcb8939e	-0.022531327
165	0xbe6982d7	-0.22803818
166	0xbcbc8159	-0.023010897
167	0x3e421f4c	0.18957251
168	0x3e5d28ed	0.21597643
169	0x3e67b34b	0.22626989
170	0xbe18b7d7	-0.1491388
171	0xbcf42757	-0.029803915
172	0x3da9b09a	0.08285637
173	0x3e61d93e	0.22055528
174	0x3e5719a9	0.21005882
175	0xbcdbb038	-0.026817426
176	0x3c13cdb7	0.009021214
177	0xbccc0789	-0.024905937
178	0xbe18b9d9	-0.14914645
179	0xbe1ec99e	-0.15506598
180	0xbddfede6	-0.109340474
181	0xbca98715	-0.020694295
182	0x3dbcf163	0.09225728
183	0x3c89ac58	0.016805813
184	0xbd2e3a29	-0.042535935
185	0xbd9e684c	-0.07734737
186	0xbcc66425	-0.024217675
187	0x3ca27521	0.019831242
188	0x3dd229bc	0.102618665
189	0x3d268082	0.0406499
190	0x3d90106a	0.07034381
191	0x3d13bfda	0.036071636
192	0xbda5bd41	-0.08092738
193	0xbe0c5913	-0.13705854
194	0xbe603afc	-0.21897501
195	0xbd633b0c	-0.055476233
196	0x3d3dd0e5	0.046341795
197	0xbd2e368b	-0.042532485
198	0x3b99cb7c	0.0046934467
199	0xbe4c952e	-0.19978783
200	0x3e651b95	0.22373803
201	0x3e2dc48a	0.16969505
202	0x3cf49af6	0.029859047
203	0x3c671362	0.014103742
204	0xbe55c220	-0.20874834
205	0x3cf30b22	0.029668394
206	0xbbcc1088	-0.0062275566
207	0xbc9bccb9	-0.019018518
208	0xbd8366f9	-0.06416125
209	0xbdcae01f	-0.09906029
210	0xbe240558	-0.16017663
211	0xbdd18f5e	-0.10232423
212	0x3d2cb06b	0.042160433
213	0x3d2195e1	0.039449576
214	0x3df8c7a8	0.121474564
215	0xbe7848e2	-0.24246553
216	0x3da5ff90	0.08105385
217	0x3e90b3db	0.2826222
218	0x3e8d4f16	0.275994
219	0x3dd2774f	0.102766626
220	0xbe8745dc	-0.26420486
221	0xbe819203	-0.2530671
222	0xbe2ecd5c	-0.17070526
223	0xbc8a3a8d	-0.016873622
224	0xbdb7a3c2	-0.08966781
225	0xbe456f76	-0.192808
226	0xbc9c0785	-0.019046554
227	0x3de587a8	0.11207515
228	0x3e26d4df	0.16292141
229	0xbdc2ce98	-0.09512061
230	0xbcc32cc1	-0.023825051
231	0xbd735103	-0.05940343
232	0xbdd51a29	-0.1040538
233	0xbcbe1268	-0.023202136
234	0xbdf9d588	-0.12198931
235	0xbde42627	-0.111400895
236	0x3d48547c	0.048908696
237	0x3e4dbc87	0.20091449
238	0x3d675ad5	0.05648311
239	0xbe1e4c4d	-0.15458794
240	0x3dc0b284	0.09409049
241	0x3e6e55ca	0.23274913
242	0x3e7ec822	0.24881032
243	0x3eb302f0	0.3496318
244	0x3e1e3808	0.15451062
245	0x3ea65e3a	0.32493764
246	0x3ec324e0	0.3811407
247	0x3e2f39ac	0.17111844
248	0x3e833cd5	0.2563235
249	0x3e3a171e	0.18172881
250	0xbd934d48	-0.071924746
251	0xbb1c92cf	-0.0023891216
252	0xbc97f7d4	-0.01855079
253	0x3cb20f14	0.021735705
254	0xbde67cab	-0.11254247
255	0xbdb88d8a	-0.090113714

bias f4 [16]
0	0x3bb6b665	0.0055759423
1	0xbdfbb5c3	-0.12290528
2	0x3ed954e3	0.42447576
3	0xbdfaf5bd	-0.12253902
4	0x3ebc8219	0.36818007
5	0x3c84ff0c	0.016234897
6	0x3e0ceb76	0.13761696
7	0x3eb2235f	0.3479261
8	0x3c9ce44c	0.01915183
9	0x3e371e71	0.17882706
10	0x3ec7e7e4	0.39044106
11	0x3debb598	0.11509246
12	0x3e3112dc	0.1729235
13	0xbde39be4	-0.11113718
14	0x3de69f7f	0.1126089
15	0x3cc93b0c	0.024564289

weight f4 [120, 16, 5, 5]
0	0xbdd95bd9	-0.10613222
1	0x3e79e693	0.24404363
2	0xbcab5538	-0.020914659
3	0xbd0840f0	-0.033265054
4	0xbd93377f	-0.071883194
5	0x3dc8121c	0.09769079
6	0x3d63cf1a	0.05561743
7	0x3d0b1f45	0.033965368
8	0x3d243006	0.04008486
9	0xbde001cb	-0.10937842
10	0x3b9572e2	0.0045608142
11	0x3cb3758f	0.021906642
12	0xbb89d29a	-0.004206014
13	0x3d13f71d	0.036124337
14	0x3c86769c	0.01641398
15	0xbda64dc9	-0.08120305
16	0xbe3ca3f3	-0.18421917
17	0x3d14b63f	0.036306616
18	0xbe528084	-0.20556837
19	0xbd0ca82c	-0.03434007
20	0xbe1fc213	-0.15601377
21	0xbde3f89b	-0.11131402
22	0xbde0faeb	-0.10985359
23	0xbf00fab9	-0.5038257
24	0x3db3a126	0.08770971
25	0xbdf6a280	-0.12042713
26	0xbda798f4	-0.0818347
27	0xbde8d10e	-0.11367999
28	0x3d0237db	0.03179155
29	0x3be967ae	0.0071229553
30	0xbd32c9b7	-0.0436494
31	0x3d885c34	0.06658211
32	0xbd9238f2	-0.07139768
33	0x3dc81f97	0.0977165
34	0x3e81910a	0.2530597
35	0x3dbd327a	0.09238143
36	0x3e057c63	0.13035731
37	0xbd035bfe	-0.032070152
38	0x3d9e86a8	0.077405274
39	0xbe385dbb	-0.18004505
40	0x3cda8b87	0.02667786
41	0xbd92bb4d	-0.07164631
42	0xbddcfe1e	-0.107906565
43	0xbb3f9c97	-0.0029237622
44	0x3db5eb9b	0.08882829
45	0xbcff6095	-0.031173984
46	0xbe0382cf	-0.12842868
47	0xbe802484	-0.2502786
48	0xbe4076df	-0.18795346
49	0x3e159a78	0.14609706
50	0xbca40348	-0.020021096
51	0xbe588461	-0.21144249
52	0xbe30018f	-0.17188095
53	0xbdb97761	-0.09055973
54	0xbd112a85	-0.03544094
55	0x3e4e2199	0.20130004
56	0x3e3a3167	0.18182908
57	0xbe05fbd9	-0.13084354
58	0x3d538b2d	0.0516464
59	0x3d055019	0.03254709
60	0x3e3671ef	0.178169
61	0x3dbeeadf	0.09322142
62	0xbe120883	-0.1426106
63	0x3d94f330	0.07272947
64	0xbdce7117	-0.10080164
65	0x3e5dd77c	0.21664232
66	0x3dabb3ca	0.083839014
67	0xbcac1da3	-0.021010226
68	0x3c2aa4d1	0.010415272
69	0xbe181a13	-0.14853697
70	0xbd4c28a7	-0.049843457
71	0xbd80dfb7	-0.0629267
72	0x3d0c394e	0.034234338
73	0x3e2cd7b6	0.16879162
74	0x3d3e0917	0.046395388
75	0xbc92bb28	-0.017911509
76	0x3cd97341	0.026544215
77	0xbdaf5f98	-0.08563155
78	0xbc61a7ed	-0.013772947
79	0x3d7ea3a5	0.062167782
80	0xbd91fe2e	-0.07128559
81	0xbe2440c8	-0.16040337
82	0x3dc82dc5	0.09774355
83	0xbd12bade	-0.03582274
84	0xbcef990d	-0.029247785
85	0x3e25ee93	0.1620429
86	0x3e048935	0.12942965
87	0xbc5544cd	-0.013016892
88	0x3c394811	0.011308686
89	0x3e033b0a	0.1281549
90	0x3db213e7	0.08695202
91	0xbd3aa412	-0.045566626
92	0xbda0260b	-0.07819756
93	0xbd9955f8	-0.074871
94	0xbd37b585	-0.044850845
95	0x3c4b0570	0.012391433
96	0xbe0454e8	-0.12923014
97	0xbd9b69ce	-0.0758854
98	0xbe146546	-0.14491758
99	0x3d1854b3	0.03719015
100	0xbcab5c26	-0.020917963
101	0x3b2f6532	0.0026763198
102	0x3c7f235f	0.015572398
103	0xbe744817	-0.23855625
104	0xbdd12ec5	-0.10213999
105	0xbdb53c45	-0.08849386
106	0x3d55b534	0.052174762
107	0x3d443834	0.047905162
108	0x3d0e67a5	0.034766812
109	0xbe269aef	-0.1627004
110	0x3d125d9b	0.0357338
111	0xbbf09cf4	-0.007342929
112	0xbce8f4db	-0.028437069
113	0x3dab1417	0.08353441
114	0xbe2094cb	-0.1568176
115	0x3c7994ba	0.015233213
116	0x3c005c23	0.007834467
117	0xbe7d7abc	-0.2475385
118	0xbdc45f17	-0.095884494
119	0x3dd76304	0.105169326
120	0xbbb87e17	-0.0056302655
121	0x3cd731b8	0.026268825
122	0xbe28cba5	-0.16483934
123	0xbebd018c	-0.36915243
124	0x3daea7f2	0.08528127
125	0xbdedc4ac	-0.11609778
126	0xbc67c6e6	-0.014146542
127	0x3dedbfb7	0.11608832
128	0xbd97e89e	-0.07417415
129	0xbe048b3b	-0.12943737
130	0xbe35c068	-0.17749178
131	0xbd0f3950	-0.034966767
132	0xbe31274c	-0.17300147
133	0xbd76057c	-0.060063824
134	0x3cdd2420	0.026994765
135	0xbc35125a	-0.011051739
136	0xbe0ede1c	-0.13951916
137	0xbd21117c	-0.039323315
138	0x3e3a7955	0.18210347
139	0x3df1b1bb	0.118014775
140	0xbc9d01a8	-0.019165829
141	0xbe39e634	-0.18154222
142	0xbcbb5616	-0.022868197
143	0xbd05e8a2	-0.03269256
144	0x3ce07f75	0.027404526
145	0xbd96b03a	-0.07357831
146	0xbcc8e842	-0.024524812
147	0xbe0e72d0	-0.13910985
148	0xbe186175	-0.14880927
149	0xbda29606	-0.07938771
150	0x3e20b6ff	0.15694807
151	0x3dd86a42	0.10567142
152	0x3d1e2b1c	0.03861533
153	0x3e081baa	0.13291803
154	0x3d4e931b	0.05043326
155	0x3d9347cb	0.07191428
156	0x3d7e48a9	0.062081013
157	0x3ca99c32	0.020704363
158	0x3d00ed2c	0.031476185
159	0x3da5f10b	0.08102616
160	0x3dc7d85b	0.097580634
161	0x3c1bd784	0.009511832
162	0x3d9d5e7a	0.076840356
163	0xbd2b158a	-0.041768588
164	0xbd6c31fe	-0.057664864
165	0xbe827a2f	-0.25483844
166	0xbdb31ed7	-0.087461166
167	0x3cb49b4a	0.022046704
168	0xbd71856b	-0.058965128
169	0x3d9d659f	0.07685398
170	0x3e015b81	0.12632562
171	0x3da83a4d	0.08214245
172	0x3cb45641	0.022013785
173	0x3db6a6ec	0.089185566
174	0x3e8812ae	0.2657675
175	0xbd90c3ad	-0.07068572
176	0x3e06f5fc	0.13179773
177	0xbe0214e4	-0.12703282
178	0x3d17c44e	0.037052445
179	0x3de98067	0.11401444
180	0x3e14c0cd	0.14526673
181	0x3e337fd9	0.17529239
182	0xbd199c77	-0.037502732
183	0x3d600f66	0.054702185
184	0xbe67434a	-0.22584262
185	0xbe1e6e61	-0.15471794
186	0x3dbaa7d3	0.09114041
187	0x3d833da9	0.06408245
188	0xbd486326	-0.04892268
189	0xbd9f6af5	-0.07784072
190	0x3e4ce1c5	0.20007999
191	0x3dda3ef5	0.10656539
192	0x3e5055b6	0.20345196
193	0x3e24a4be	0.16078469
194	0x3d2674e5	0.040638823
195	0x3d3e9631	0.046529952
196	0x3c64c6dc	0.013963427
197	0x3e243e4b	0.16039388
198	0x3e06b8b0	0.1315639
199	0x3db81ed7	0.08990257
200	0xbd72cfb3	-0.05928011
201	0xbd992597	-0.07477873
202	0x3cefa07d	0.029251331
203	0xbe04e684	-0.1297856
204	0x3d0b09e6	0.033944987
205	0x3c0e8910	0.00869967
206	0x3e5423c4	0.20716769
207	0x3e19af98	0.1500839
208	0x3cb4d7c2	0.022075538
209	0x3d9e518f	0.077304
210	0xbc28c2b4	-0.010300327
211	0xbe3c6c1a	-0.18400612
212	0x3d91efae	0.071257934
213	0x3c02cae2	0.007982941
214	0x3e0d9d91	0.13829638
215	0xbd18a5e6	-0.037267588
216	0xbe7fed5b	-0.24992888
217	0xbbd29ef6	-0.006427641
218	0x3d281115	0.041031916
219	0xbd746f26	-0.059676312
220	0xbe1e14cd	-0.15437622
221	0xbe65ffc7	-0.22460853
222	0xbe92f1ce	-0.28700107
223	0xbe5c8531	-0.21535183
224	0x3c557ea7	0.013030685
225	0x3d4a7eeb	0.049437445
226	0x3e2fdeb7	0.17174803
227	0x3d88e087	0.0668345
228	0x3e8ef2d9	0.27919653
229	0x3e67e5ea	0.22646299
230	0x3d88e2d7	0.06683891
231	0x3db2ee50	0.08736861
232	0xbd66078d	-0.056159545
233	0x3df8ca92	0.12148012
234	0x3d93a979	0.07210059
235	0xbdd27921	-0.1027701
236	0xbdc2953e	-0.09501122
237	0x3cf657c6	0.03007115
238	0x3db562bf	0.08856725
239	0x3ea1e649	0.31621006
240	0xbe6388d2	-0.22220162
241	0x3e0d385b	0.13791029
242	0x3c9f0f6b	0.019416532
243	0xbc88f9bb	-0.016720643
244	0xbc2dd589	-0.010609993
245	0xbe3e9b96	-0.18614039
246	0x3d280aac	0.041025802
247	0x3cf9d564	0.03049726
248	0xbd52793e	-0.051385157
249	0x3d213254	0.039354637
250	0x3dc5d654	0.096600205
251	0xbdbf874a	-0.09351976
252	0x3c407b15	0.011748095
253	0xbd83520a	-0.06412132
254	0x3d393d6d	0.045224596
255	0xbe5f6e0d	-0.21819325

bias f4 [120]
0	0x3e28ca11	0.16483332
1	0x3d238c79	0.039928887
2	0x3dca8e5e	0.09890436
3	0xbd685b73	-0.056727838
4	0x3e61eb70	0.22062469
5	0xbd5adb72	-0.053431936
6	0x3e3aaf82	0.18231013
7	0xbce6fcb8	-0.028196678
8	0x3e780541	0.24220754
9	0xbcc16655	-0.023608366
10	0x3dab820f	0.08374416
11	0x3c7de6d9	0.015496933
12	0xbcba7592	-0.02276114
13	0x3c2d184c	0.010564875
14	0xbd4136d0	-0.047171414
15	0xbcba6ddc	-0.022757463
16	0x3e0968c3	0.1341887
17	0x3e4de28c	0.20105952
18	0x3d5b9a38	0.05361387
19	0x3e4cc40c	0.19996661
20	0x3e6d3b41	0.23167135
21	0xbd897ff3	-0.067138575
22	0xbbb21795	-0.00543494
23	0xbd8a9c21	-0.067680605
24	0xbdd2b7b8	-0.10288948
25	0x3cec8f53	0.028876936
26	0xbd5f5f0d	-0.054534007
27	0xbbf97e58	-0.0076139383
28	0x3c2e9787	0.010656244
29	0xbd0587d1	-0.032600228
30	0x3db0f46b	0.08640369
31	0x3de1a701	0.110181816
32	0xbc968477	-0.018373711
33	0xbdad4bbb	-0.0846171
34	0x3dfe2b06	0.1241055
35	0xbd65b60b	-0.056081813
36	0xbd0e46fd	-0.03473567
37	0xbd83e95a	-0.06440993
38	0x3ca724ef	0.020403353
39	0x3dbcdd63	0.09221914
40	0xbd1d3104	-0.038376823
41	0xbd1bc845	-0.03803279
42	0x3dbb106f	0.09133994
43	0x3da8db13	0.0824491
44	0xbd80fa83	-0.06297781
45	0x3d0ad189	0.033891235
46	0xb8a811c5	-8.014174e-05
47	0x3d944745	0.07240156
48	0xbd5f83f8	-0.054569215
49	0xbd80807a	-0.06274505
50	0x3e406277	0.18787561
51	0x3de28a2d	0.11061511
52	0x3d64b8c0	0.055840254
53	0xbd069e89	-0.032866035
54	0x3e71c7d9	0.23611392
55	0xbd4a548e	-0.049397044
56	0x3ea50607	0.3223116
57	0x3d82b4c8	0.063821375
58	0x3d95a674	0.07307139
59	0xbcc86b59	-0.02446525
60	0xbba8ea4c	-0.0051548835
61	0x3de948ba	0.113908246
62	0x3c8936ff	0.016749857
63	0x3e1f4536	0.15553746
64	0xbb7f61e1	-0.0038968252
65	0x3e138cf8	0.14409244
66	0x3bf3a585	0.007435503
67	0xbca68cef	-0.020330874
68	0x3e372371	0.17884614
69	0x3d205cfb	0.039151173
70	0x3d9c46bb	0.07630678
71	0xbcf7d85f	-0.030254541
72	0x3e39410a	0.18091217
73	0x3a04ad55	0.0005061229
74	0x3dd8cb09	0.10585601
75	0xbd2b06c2	-0.04175449
76	0xbcc2b668	-0.023768619
77	0x3e335035	0.17511065
78	0x3ae30d8c	0.0017322763
79	0x3dc427e1	0.09577919
80	0x3e2bca0b	0.16776292
81	0x3e13d45d	0.14436479
82	0x3b69e69d	0.0035690435
83	0x3e0662f2	0.13123682
84	0xbda1d36a	-0.07901652
85	0x3e6ac2eb	0.22925918
86	0xbe11a1f1	-0.14221932
87	0xbc60b5db	-0.013715233
88	0x3d105789	0.03523973
89	0x3e3463a7	0.1761614
90	0x3c3dfe88	0.0115963295
91	0xbd281f9b	-0.041045766
92	0xbd7edbc6	-0.06222131
93	0xbd5dd992	-0.05416257
94	0x3e36e5c1	0.17861082
95	0xbd573ce5	-0.052548308
96	0x3d28a893	0.04117639
97	0x3e1eb761	0.15499641
98	0x3d5f0cbb	0.0544555
99	0x3e082fd0	0.13299489
100	0x3d08886c	0.033333227
101	0x3e16d717	0.14730488
102	0x3dc93b4c	0.09825763
103	0x3e425fdc	0.1898188
104	0xbe1c261f	-0.15248917
105	0x3dc652c7	0.09683757
106	0x3e561698	0.20907056
107	0xbd3a0287	-0.045412567
108	0xbcafdf03	-0.021468645
109	0x3d42607c	0.047455296
110	0xbcd6566e	-0.02616426
111	0xb85ecc39	-5.311912e-05
112	0x3e11f003	0.14251713
113	0xbd0f6b0f	-0.03501421
114	0x3e271e89	0.16320242
115	0xbc777dc0	-0.015105665
116	0xbc8ec763	-0.01742906
117	0x3debed92	0.11519922
118	0x3e062158	0.13098657
119	0x3d67a664	0.056555167

weight f4 [84, 120]
0	0xbdaa3a07	-0.08311849
1	0x3c429605	0.011876588
2	0x3d82e450	0.063912034
3	0x3da50928	0.08058387
4	0xbe3308eb	-0.1748387
5	0xbd3c6125	-0.04599108
6	0x3c15b22a	0.009136716
7	0x3da0954c	0.07840976
8	0xbdaf3f28	-0.08556968
9	0x3d0d9bdf	0.03457248
10	0xbbff50a4	-0.0077915955
11	0xbcc38e18	-0.023871467
12	0xbea49bb1	-0.32150033
13	0x3b9710da	0.004610163
14	0x3b06b384	0.0020553777
15	0xbdfeba33	-0.124378584
16	0xbdb33bb8	-0.08751625
17	0xbebca6ad	-0.36845914
18	0xbe1d8b6c	-0.15385216
19	0xbdea1775	-0.11430255
20	0xbe2d9e7f	-0.16954993
21	0x3d5785ee	0.05261796
22	0x3d9d9346	0.07694106
23	0x3ce241af	0.027619211
24	0x3dd423ae	0.10358368
25	0x3e1357e1	0.14388992
26	0xbcdb81ea	-0.026795346
27	0xbd90a06f	-0.0706185
28	0xbd68fbc2	-0.05688072
29	0x3d2ae5a0	0.041722894
30	0xbe392c64	-0.1808334
31	0xbd1887b7	-0.037238803
32	0xbdb7dc7e	-0.089776024
33	0x39bcadbb	0.00035987594
34	0xbd7c906a	-0.06166116
35	0x3cfc416d	0.030792916
36	0xbd80559d	-0.062663294
37	0x3eb10149	0.34571293
38	0xbc245ea5	-0.010032331
39	0x3d9248b7	0.071427755
40	0x3d67b019	0.056564424
41	0xbc47fb78	-0.012205951
42	0xbd943e7f	-0.07238483
43	0x3dd34a31	0.10316885
44	0xbdb3fb84	-0.08788207
45	0x3d849114	0.06472984
46	0xbd60a19b	-0.05484162
47	0xbe20cf52	-0.15704086
48	0x3d370cee	0.044690065
49	0x3db1863c	0.08668181
50	0xbdbcf9b9	-0.09227318
51	0x3e0757e4	0.13217121
52	0x3da72f6c	0.08163342
53	0xbc01dbd4	-0.007925946
54	0x3e11a0a0	0.1422143
55	0x3dec0ed1	0.115262635
56	0xbeb03414	-0.34414732
57	0x3d37f552	0.04491169
58	0x3e1012fa	0.14069739
59	0xbc45818c	-0.012054812
60	0xbe49895b	-0.19681303
61	0x3df96d94	0.121791035
62	0x3da899ae	0.08232437
63	0xbd4a8e99	-0.049452398
64	0xbe29eb1c	-0.16593593
65	0x3bc37ae3	0.005965577
66	0x3c5f9c38	0.013648085
67	0x3d8d9498	0.06913108
68	0x3d9a569e	0.07536052
69	0xbcc377f4	-0.023860909
70	0xbd1a1e54	-0.03762658
71	0x3d0a0e06	0.03370478
72	0xbe6c2e47	-0.23064528
73	0x3d584f6b	0.052810114
74	0x3dc28e8a	0.094998434
75	0xbd6cd42d	-0.057819534
76	0x3d5699bc	0.052392706
77	0x3de4923f	0.11160707
78	0x3d68c36c	0.056826994
79	0x3dbb1d05	0.091363944
80	0xbd083f24	-0.03326334
81	0x3e447e0e	0.19188711
82	0xbce3a7c7	-0.027789963
83	0xbd2aa044	-0.041656747
84	0x3ca0f918	0.019650027
85	0xbda1a1d8	-0.07892197
86	0x3ea8ebb9	0.32992342
87	0xbc33dec3	-0.0109784035
88	0xbd092a8c	-0.03348784
89	0x3e14e5b9	0.14540757
90	0x3d2f1163	0.04274119
91	0xbd86e637	-0.06586879
92	0xbcbdaff6	-0.023155194
93	0xbcecfa40	-0.028927922
94	0xbc2d408c	-0.010574471
95	0xbce81ccf	-0.02833405
96	0x3da7abe6	0.08187084
97	0xbe0112a4	-0.12604767
98	0xbe48d272	-0.19611529
99	0xbda2f3fb	-0.07956692
100	0xbdaa6fc7	-0.08322101
101	0x3d8aef7c	0.06783959
102	0xbdd2790f	-0.10276996
103	0x3d0359b5	0.032067973
104	0xbe386c8d	-0.18010159
105	0xbe055d8b	-0.13023965
106	0xbd457285	-0.048204917
107	0xbcea3a50	-0.028592259
108	0x3aed4a15	0.0018103743
109	0xbdc39f16	-0.095518276
110	0xbcb7e4de	-0.022448
111	0x3c7ee219	0.015556836
112	0xbe8d7ec5	-0.2763578
113	0xbd25aa91	-0.040445868
114	0xbecc1dfd	-0.3986663
115	0xbd7c39d9	-0.061578605
116	0x3c7212ca	0.0147749875
117	0x3c030065	0.0079956995
118	0xbb97a9b8	-0.0046283863
119	0x3de1259e	0.10993503
120	0x3d1aeecf	0.037825402
121	0x3e2a3e54	0.16625339
122	0x3e4ad5c8	0.19808114
123	0xbc8e76cb	-0.01739063
124	0xbdf8bfcd	-0.12145958
125	0xbbd1b74a	-0.0064000236
126	0x3e45836f	0.19288419
127	0xbcbd4e84	-0.023108728
128	0x3e49006d	0.19629069
129	0x3c3ff6e4	0.011716578
130	0xbde45bf6	-0.11150353
131	0xba7f31f6	-0.0009734923
132	0x3e1bbddd	0.15209146
133	0x3ca1da59	0.019757437
134	0x3c2bee93	0.010493892
135	0xbd67f93e	-0.05663418
136	0x3d1a42a3	0.037661206
137	0xbe56b2df	-0.20966671
138	0x3e9d1256	0.30678052
139	0xbe51cb40	-0.2048769
140	0x3ab194fe	0.0013548431
141	0x3d45021d	0.04809772
142	0xbd61bd05	-0.055111904
143	0xbd4ea776	-0.050452672
144	0x3e3c6289	0.18396963
145	0x3e1ed6ef	0.15511678
146	0xbc4f16b6	-0.012639692
147	0xbe42c83e	-0.19021699
148	0xbd4187b8	-0.047248572
149	0x3cd981e0	0.026551187
150	0xbdc017b9	-0.09379525
151	0xbceab3af	-0.028650133
152	0xbd7a2b6a	-0.06107656
153	0x3da627fe	0.08113097
154	0xbd8b067b	-0.067883454
155	0xbd1c24cb	-0.038121026
156	0x3c99502e	0.01871499
157	0xbd096201	-0.03354073
158	0x3e208f1a	0.15679589
159	0xbd7cda02	-0.061731346
160	0xbc0b3480	-0.008496404
161	0x3e0bfe93	0.13671331
162	0x3e7070dc	0.23480552
163	0xbe84594b	-0.25849375
164	0xbd38619b	-0.04501496
165	0xbd900003	-0.07031252
166	0x3caa6f0d	0.020804906
167	0xbe01a869	-0.126619
168	0x3ccb3936	0.024807554
169	0xbcfd7f05	-0.030944357
170	0xbc53891c	-0.012911107
171	0x3d6f7330	0.05845946
172	0xbe1903fc	-0.14942926
173	0x3d11cc83	0.03559543
174	0xbc65b35e	-0.014019815
175	0xbd80c9d3	-0.06288495
176	0x3e5d2817	0.21597324
177	0xbeb2f375	-0.34951368
178	0x3df4be1b	0.11950322
179	0xbd42249a	-0.047398187
180	0xbdee29db	-0.11629077
181	0xbd3558d5	-0.04427417
182	0x3d826c61	0.06368328
183	0x3dbe6ea7	0.09298449
184	0xbe5fec80	-0.21867561
185	0xbeb4b630	-0.35295248
186	0xbca0616d	-0.019577706
187	0xbd9c739f	-0.076392405
188	0xbdbd917c	-0.092562646
189	0x3cdf693a	0.027271856
190	0x3e440d65	0.19145735
191	0xbda6a4cf	-0.081369035
192	0x3e7a8a6e	0.24466869
193	0x3a9df80c	0.0012052073
194	0xbc807478	-0.015680537
195	0x3df57b32	0.11986388
196	0x3c386d4b	0.011256526
197	0xbdae59a2	-0.0851319
198	0x3d82019e	0.06347965
199	0xbe7f0609	-0.24904646
200	0xbdb2bbb0	-0.08727205
201	0xbe6ce50e	-0.23134252
202	0x3d1dd6b9	0.038534854
203	0xbd5184f5	-0.05115219
204	0xbc680493	-0.014161247
205	0xbd9c2a33	-0.07625236
206	0xbe5747e8	-0.21023524
207	0xbd42ff92	-0.047607012
208	0xbda6d420	-0.081459284
209	0x3e3eb7a3	0.1862474
210	0x3db9a384	0.09064391
211	0x3d7f649e	0.062351815
212	0x3bece678	0.0072296225
213	0x3da2b78a	0.079451635
214	0x3d4d9a15	0.050195772
215	0xbdc6bd56	-0.09704082
216	0xbd28aba6	-0.04117932
217	0x3cc33069	0.023826795
218	0xbde74ae8	-0.11293584
219	0x3dada9cc	0.08479652
220	0x3cb3d37a	0.021951426
221	0x3dbe9700	0.09306145
222	0x3d8bdb0f	0.068288915
223	0xbe26024e	-0.16211817
224	0x3dfc38d1	0.12315524
225	0x3d8c9f6b	0.06866344
226	0x3da4dedb	0.08050319
227	0xbdcc89e2	-0.099872366
228	0xbcdf00fe	-0.027222153
229	0x3e040a05	0.12894447
230	0x3dad3f2d	0.084593154
231	0x3d369f30	0.044585407
232	0x3e5924da	0.21205464
233	0xbdb2b28d	-0.08725462
234	0xbce0254c	-0.027361535
235	0x3c95d8f3	0.018291926
236	0xb713106c	-8.765706e-06
237	0xbe5b8d36	-0.21440586
238	0xbe04169c	-0.1289925
239	0xbdae893b	-0.085222684
240	0x3c81caf0	0.015843838
241	0xbd30fb41	-0.043208364
242	0xbd2a5477	-0.04158446
243	0xbb5a2169	-0.0033284074
244	0xbd791112	-0.060807295
245	0xbd2934e4	-0.041310206
246	0x3c516dab	0.012782495
247	0xbda6075f	-0.08106875
248	0x3d475ac7	0.048670556
249	0xbda33252	-0.07968582
250	0x3c2e1bd6	0.010626754
251	0xbd84a54c	-0.064768404
252	0xbc931674	-0.017955042
253	0xbd906b8c	-0.07051763
254	0x3d2cc2ce	0.042177968
255	0xbb0e3361	-0.0021698105

bias f4 [84]
0	0x3b3a8632	0.0028461334
1	0x3e203f63	0.1564918
2	0xbe1244c2	-0.14284042
3	0x3e32d7ae	0.17465088
4	0x3e348c51	0.17631651
5	0x3e34679d	0.1761765
6	0x3d7fd1ea	0.06245605
7	0x3e16b368	0.14716876
8	0xbdb8a12c	-0.09015116
9	0xbdf31c26	-0.11870603
10	0xbcf46fc8	-0.029838458
11	0x3e57ea70	0.21085525
12	0xbdc327b1	-0.09529055
13	0xbd347172	-0.044053502
14	0x3e573f2e	0.21020195
15	0x3e391257	0.18073402
16	0x3da48c59	0.08034582
17	0x3c0f1679	0.008733385
18	0x3dcc8a46	0.09987311
19	0xbc86639a	-0.016404916
20	0xbd35e170	-0.044404447
21	0xbdc37aa5	-0.09544877
22	0x3ddc07fc	0.107437104
23	0xbe1325b4	-0.14369851
24	0x3e4a543c	0.19758695
25	0x3de95859	0.11393804
26	0x3e456e31	0.19280316
27	0xbd52b85f	-0.05144536
28	0x3e94a64d	0.29033127
29	0x3e7ed6a4	0.24886566
30	0x3e2fb3fd	0.17158504
31	0x3e85161d	0.25993434
32	0x3de7cfd2	0.113189355
33	0x3df3cd66	0.11904411
34	0x3da732ab	0.08163961
35	0xbdfa4f4b	-0.12222155
36	0x3dffe728	0.124952614
37	0x3c9470ac	0.018120132
38	0x3e0c2dfa	0.13689414
39	0xbdee5107	-0.116365485
40	0x3d0912f7	0.033465352
41	0x3d5738fc	0.05254458
42	0x3dc4a783	0.09602263
43	0xbe12035f	-0.14259098
44	0x3d72cb0f	0.059275683
45	0x3bce7b9d	0.006301357
46	0x3e3f0eea	0.18658033
47	0x3df2fd0e	0.118646726
48	0x3e8e691a	0.2781456
49	0x3db0a7d3	0.0862576
50	0x3e176efa	0.14788428
51	0x3e4775cc	0.1947853
52	0x3d3b0d40	0.045666933
53	0x3dbf3051	0.093353875
54	0xbded6d15	-0.11593071
55	0xbcf18983	-0.029484516
56	0xbdcc4202	-0.099735275
57	0x3e149d21	0.14513065
58	0xbd504269	-0.050844584
59	0xbda49e34	-0.08037987
60	0x3da3354a	0.079691485
61	0x3d4f9dc2	0.05068756
62	0x3e67f900	0.2265358
63	0x3dd354e0	0.10318923
64	0x3d768a91	0.06019074
65	0x3e130f7b	0.14361374
66	0x3daee435	0.08539621
67	0x3d374629	0.044744644
68	0x3db2971f	0.0872023
69	0xbd434822	-0.047676213
70	0xbcc7bc46	-0.024381768
71	0x3d340ad3	0.043955635
72	0x3de4d581	0.11173535
73	0x3df01501	0.11722756
74	0xba81e302	-0.0009909573
75	0x3dcdb4b3	0.10044231
76	0x3e178726	0.14797649
77	0x3e435179	0.19074048
78	0x3e9256e1	0.28581908
79	0x3dd352f0	0.103185534
80	0x3e3748e8	0.17898905
81	0x3e63e606	0.22255716
82	0x3e5a9bd4	0.21348506
83	0x3db229de	0.08699392

weight f4 [7, 84]
0	0x3cebc745	0.028781543
1	0x3e6f4e26	0.23369655
2	0xbdb5c422	-0.088753
3	0xbe972d3e	-0.29526705
4	0xbe4c034b	-0.19923131
5	0xbea549e3	-0.32282934
6	0x3e0de02e	0.13855049
7	0xbe582486	-0.21107683
8	0x3e99e559	0.3005779
9	0x3e31d9d0	0.17368245
10	0xbca5c30a	-0.020234603
11	0x3e0a9efc	0.1353721
12	0xbe08c329	-0.13355698
13	0xbe465379	-0.1936778
14	0x3e02a99e	0.12760016
15	0x3d18375c	0.03716217
16	0xbdfb8c85	-0.12282661
17	0x3e276c74	0.16349965
18	0x3dd2497f	0.102679245
19	0xbdc6f76f	-0.09715163
20	0xbd4409cc	-0.047860906
21	0xbd3d1510	-0.046162665
22	0xbe6eb9fd	-0.23313136
23	0xbd6d7096	-0.0579687
24	0xbd3442f1	-0.044009153
25	0x3db4dcfa	0.088312104
26	0xbe8ffaea	-0.2812112
27	0xbd5dac2f	-0.054119285
28	0x3d82db93	0.06389537
29	0xbe075066	-0.13214263
30	0xbe7c2542	-0.24623588
31	0xbe926b47	-0.2859747
32	0xbe5597ed	-0.20858736
33	0xbdfcce61	-0.12344051
34	0xbe2bca9c	-0.16776508
35	0xbd2fe752	-0.042945214
36	0x3e233cd0	0.15941167
37	0x3e8e444a	0.27786475
38	0xbe84ea0f	-0.25959823
39	0xbdc5d78b	-0.09660252
40	0xbd244c68	-0.04011193
41	0x3e007268	0.12543643
42	0xbd9d7207	-0.076877646
43	0x3eb0133c	0.34389675
44	0xbd5ed3ca	-0.054401197
45	0xbe65a588	-0.22426426
46	0x3e32be88	0.17455494
47	0x3cbc6c9e	0.023001011
48	0xbe16526a	-0.14679876
49	0x3e359cf0	0.17735648
50	0x3d90894b	0.070574366
51	0x3d816b57	0.063193016
52	0x3e477b28	0.19480574
53	0xbe0ce506	-0.1375924
54	0xbde02571	-0.109446414
55	0x3e0e8d50	0.13921094
56	0x3e48c46b	0.19606178
57	0xbc9271ea	-0.017876584
58	0xbe2bffd2	-0.16796806
59	0x3da102f6	0.07861893
60	0xbd7233dc	-0.05913149
61	0x3d87f1a3	0.066378854
62	0xbe151281	-0.1455784
63	0xbbbc0b4e	-0.0057386523
64	0xbd8c6991	-0.06856073
65	0xbe616e96	-0.22014841
66	0x3e4076f8	0.18795383
67	0x3e7cd627	0.24691068
68	0xbe86e360	-0.26345348
69	0xbdb57ee9	-0.08862097
70	0xbbdec2cb	-0.0067981235
71	0x3e74fdcb	0.2392494
72	0xbc173db3	-0.009231019
73	0xbe16f882	-0.14743236
74	0x3dc5f4fd	0.096658684
75	0x3e2ada19	0.1668476
76	0xbdd4864a	-0.10377176
77	0x3dc1b9a6	0.09459238
78	0x3b987bd8	0.004653435
79	0x3df623cd	0.12018547
80	0x3e69c6ed	0.2282979
81	0x3d8fd68b	0.07023343
82	0x3d9cd48e	0.07657729
83	0x3cd9037c	0.02649092
84	0x3c435c99	0.0119239325
85	0xbe18e634	-0.14931566
86	0xbe0caf46	-0.13738737
87	0xbe73ff03	-0.23827748
88	0xbebabb26	-0.36470908
89	0xbe82cc98	-0.25546718
90	0x3d6a7d48	0.057248384
91	0x3db76b65	0.08956031
92	0x3e112d79	0.14177503
93	0x3b123ed0	0.0022315271
94	0x3d91bea4	0.0711644
95	0xbe19c851	-0.15017821
96	0xbe91cb6e	-0.28475517
97	0xbe0f2752	-0.13979843
98	0xbec88aa7	-0.39168283
99	0xbcd01a5e	-0.025403198
100	0xbf0cb3ed	-0.54962045
101	0x3e0b5779	0.13607587
102	0x3e1609ce	0.14652178
103	0x3da89a96	0.0823261
104	0xbdd6cddf	-0.104884855
105	0x3cacd211	0.021096261
106	0x3e193207	0.1496049
107	0xbe51475a	-0.20437375
108	0xbe73643c	-0.23768705
109	0x3ee14ebb	0.4400538
110	0xbf186251	-0.5952502
111	0xbd52fa83	-0.051508438
112	0x3e946b5d	0.28988162
113	0x3e6d33e2	0.23164323
114	0x3e36e273	0.17859821
115	0xbe522745	-0.20522793
116	0xbe84b682	-0.25920492
117	0x3a40c3ef	0.0007353415
118	0xbf010f45	-0.50413924
119	0xbdf91c11	-0.12163556
120	0x3dd0bb71	0.101920016
121	0x3d01b97e	0.03167104
122	0xbdd92808	-0.106033385
123	0x3d3e57ea	0.04647056
124	0x3d92c92f	0.07167279
125	0xbf14716a	-0.57985556
126	0x3e2a0c79	0.1660632
127	0xb95a0858	-0.00020793208
128	0xbe875bd0	-0.26437235
129	0xbe89c171	-0.26905397
130	0x3e7ed3c7	0.24885474
131	0xbd83844c	-0.06421718
132	0x3ee99be8	0.4562676
133	0xbe9ba74b	-0.30401072
134	0xbef5054f	-0.47855613
135	0xbf3b7975	-0.73232204
136	0xbdc55f09	-0.09637267
137	0xbd844d59	-0.064600654
138	0xbd316872	-0.043312497
139	0xbe41c1fd	-0.18921657
140	0xbed5e6a4	-0.41777527
141	0xbea67294	-0.3250929
142	0xbeea813b	-0.4580172
143	0xbf2fc531	-0.68660265
144	0x3e89935a	0.26870233
145	0xbf13179d	-0.57457906
146	0xbdef44ea	-0.11683066
147	0x3da45bba	0.08025308
148	0xbe6f2509	-0.23353972
149	0xbeb5e43b	-0.3552569
150	0x3dd584fa	0.10425754
151	0xbe9583c7	-0.292021
152	0xbdb3d5f0	-0.0878104
153	0x3d3c5001	0.045974735
154	0xbd9b9fed	-0.07598863
155	0xbea4c4ec	-0.3218149
156	0xbdfad96b	-0.122485004
157	0xbdfd2cd7	-0.12362068
158	0x3edb118b	0.42786822
159	0xbede4ea5	-0.43419376
160	0xbea79f75	-0.32738844
161	0x3e93bc44	0.28854573
162	0x3dfb7a43	0.12279179
163	0x3d0ed564	0.034871474
164	0xbec296e6	-0.3800575
165	0x3e94ff7b	0.29101166
166	0x3e6f3ee0	0.23363829
167	0xbeb58a5b	-0.3545712
168	0xbddc8432	-0.10767402
169	0xbd3e4127	-0.046448853
170	0xbe3389b8	-0.17533004
171	0x3d29f4e6	0.04149332
172	0xbd361672	-0.044455
173	0x3dd2b3f0	0.102882266
174	0x3e53459f	0.20632027
175	0x3b403fae	0.002933483
176	0xbc2bf8e3	-0.010496351
177	0xbebf01be	-0.37306017
178	0xbc7b0fee	-0.015323622
179	0xbdace3d2	-0.08441891
180	0xbc30abde	-0.010783164
181	0xbd63aeca	-0.055586614
182	0xbd4f6563	-0.0506338
183	0x3e13a14a	0.14416996
184	0x3e4e4315	0.20142777
185	0xbd949303	-0.07254603
186	0x3e351877	0.17685114
187	0xbcf8758a	-0.030329484
188	0x3e6b36c5	0.22970112
189	0xbd278ddc	-0.040906772
190	0xbe47c468	-0.19508517
191	0x3dd1dd4e	0.10247289
192	0xbe80d161	-0.25159743
193	0xbe99cc4c	-0.3003868
194	0x3e06bc1a	0.13157693
195	0xbd981430	-0.074257255
196	0x3daca7ab	0.084304176
197	0xbe48550c	-0.19563693
198	0xbc57d892	-0.013174193
199	0x3e8250c5	0.25452247
200	0xbd811245	-0.06302313
201	0x3ddb92b6	0.10721342
202	0x3da6df78	0.08148092
203	0xbc182bd4	-0.009287793
204	0x3da3da12	0.08000578
205	0xbe806c6f	-0.25082728
206	0xbe4e634e	-0.20155069
207	0xbd56e1d2	-0.052461453
208	0x3d4d52b0	0.050127685
209	0xbdbcd3a8	-0.09220058
210	0x3c7f452e	0.015580459
211	0x3e0322ce	0.12806246
212	0x3e0a898f	0.13529037
213	0x3d087989	0.03331903
214	0x3e899889	0.26874188
215	0xbd418ece	-0.04725533
216	0x3e4114c2	0.18855575
217	0xbdf78316	-0.120855495
218	0xbe5b2aa0	-0.21402979
219	0x3e0d0675	0.13771994
220	0xbdf6fa01	-0.12059403
221	0xbdb6ce47	-0.08926063
222	0xbdbf02fd	-0.09326742
223	0xbe89de03	-0.26927194
224	0xbb6c9610	-0.0036100186
225	0x3d1086c2	0.035284765
226	0xbf04b6cc	-0.51841426
227	0x3d7dc951	0.06195957
228	0xbeb8cf00	-0.36095428
229	0xbe0c7855	-0.13717778
230	0xbdab814c	-0.08374271
231	0xbd366b2e	-0.04453581
232	0xbe59694b	-0.21231572
233	0x3dcf8428	0.10132629
234	0x3e449a92	0.19199589
235	0xbd385c25	-0.04500975
236	0x3d841534	0.06449357
237	0x3df6a251	0.12042678
238	0x3e1cdd90	0.15318894
239	0xbe3d04ba	-0.18458834
240	0xbdcce92f	-0.10005414
241	0x3d8167c6	0.06318621
242	0xbeab73f9	-0.33486918
243	0x3dd513b7	0.10404151
244	0x3d865d90	0.065608144
245	0xbe436618	-0.19081914
246	0x3e4d7a36	0.20066151
247	0xbd4ce6b5	-0.050024707
248	0x3e44f3b1	0.19233586
249	0xbcac65cf	-0.02104464
250	0xbd09423f	-0.033510443
251	0x3e7ee479	0.24891843
252	0xbe5e5994	-0.21713859
253	0xbcf96227	-0.03044231
254	0xbd6b7c38	-0.05749151
255	0x3d8a5866	0.06755142

bias f4 [7]
0	0xbdcaa8ac	-0.09895453
1	0x3cef8e3f	0.029242633
2	0xbc244a96	-0.010027548
3	0x3e093d71	0.13402344
4	0xbd5a624c	-0.0533164
5	0x3cfc7146	0.030815732
6	0xbd33fc3b	-0.043941718
